best_rul_model.pt (torch, 31974 bytes, 7 tensors)

lstm.weight_ih_l0 f4 [128, 18]
0	0xbbca5118	-0.006174218
1	0xbd41cd3a	-0.04731486
2	0x3ce4d5dc	0.027934007
3	0xbd175d6a	-0.03695432
4	0xbcbf7252	-0.023369942
5	0xbcaa4109	-0.020782964
6	0xbcf88791	-0.03033808
7	0x3b6387d6	0.0034718416
8	0x3c73add4	0.014872987
9	0xbbbcade3	-0.0057580336
10	0x3c3718c9	0.011175343
11	0x3cb938ce	0.022610094
12	0x3cddb4bb	0.027063718
13	0x3ca5cf97	0.020240588
14	0x3d4a5949	0.049401555
15	0xbce202ea	-0.02758928
16	0xbd0f7977	-0.035027947
17	0x3dcfac3c	0.10140273
18	0x3cbed765	0.023296067
19	0xbd5760bd	-0.05258249
20	0xbd5fa594	-0.054601267
21	0xbd8eec99	-0.06978721
22	0xbd96a507	-0.07355695
23	0xbdb507d4	-0.08839384
24	0x3d1a1f0b	0.03762726
25	0xbbdb2183	-0.0066873445
26	0xbb0d5e34	-0.0021571042
27	0xbc52a0ad	-0.012855691
28	0xbbbbdad5	-0.005732874
29	0xb9d880e5	-0.00041294764
30	0xbc08d25b	-0.008350934
31	0xbc529434	-0.012852717
32	0xbbd270c9	-0.0064221364
33	0xbcf992ac	-0.030465446
34	0xbde31376	-0.11087696
35	0xbc8a2677	-0.016864045
36	0xbad0c0e5	-0.0015926628
37	0x3c8c4956	0.017124813
38	0xbd00db02	-0.031458862
39	0x3c6e4ec2	0.0145451445
40	0xbbd20f7f	-0.0064105387
41	0xbc518282	-0.012787463
42	0x3b040734	0.0020145895
43	0x3c5c1267	0.013432122
44	0x3c47b163	0.012188288
45	0x3c85b53f	0.016321776
46	0x3c531890	0.012884274
47	0x3c0ff05c	0.0087853335
48	0x3b50778a	0.0031809532
49	0x3b801d30	0.0039097294
50	0x3b86319c	0.0040952694
51	0xbca27feb	-0.019836387
52	0xbcaf5abf	-0.021405576
53	0xbc643b26	-0.013930118
54	0x3d683736	0.05669328
55	0x3c00f7e5	0.007871603
56	0x3cf4d2ed	0.029885734
57	0x3bf5fb42	0.007506759
58	0x3d2f5a0d	0.04281049
59	0x3c081860	0.008306593
60	0x3da4342b	0.08017763
61	0x3d98ffe9	0.07470686
62	0x3bbc82a4	0.0057528783
63	0x3b55bbed	0.0032613233
64	0x3a396e9e	0.0007073673
65	0xbb89ce0b	-0.0042054704
66	0xbd15e743	-0.0365975
67	0xbcf77026	-0.030204844
68	0x3cb7f2ff	0.022454737
69	0x3c4a2cb6	0.0123397615
70	0xbd298b0c	-0.04139237
71	0x3e0c8c47	0.13725387
72	0xbbf21cc5	-0.0073886835
73	0xbc8482ce	-0.016175654
74	0xbbeafe30	-0.007171415
75	0x3b53e778	0.003233401
76	0xbbcff0b0	-0.006345831
77	0xbbe82ad9	-0.007085186
78	0xbb884f31	-0.004159831
79	0x3a2ef46b	0.00066739944
80	0xbc41b0bf	-0.011821925
81	0xbb108de3	-0.0022057227
82	0xbc470720	-0.012147695
83	0xbc955fdd	-0.018234188
84	0xbcae468a	-0.02127387
85	0xbc9e9674	-0.019358851
86	0xbbf17ba4	-0.0073694754
87	0xbc16948d	-0.009190691
88	0x3b080cb4	0.0020759525
89	0xbce96cf5	-0.028494338
90	0x3dd99d1b	0.106256686
91	0xb90a992c	-0.00013217767
92	0x3d581560	0.05275476
93	0xbd70da68	-0.05880204
94	0xbce4d41a	-0.02793317
95	0xbe242f87	-0.16033755
96	0xbdc4f2bb	-0.0961661
97	0xbdd13b39	-0.10216374
98	0x3d10b94c	0.035332963
99	0xbca2b187	-0.019860042
100	0x3c7cb17e	0.015423177
101	0x3d8faecd	0.070157625
102	0x3e04c32b	0.12965076
103	0x3e19a3e4	0.15003926
104	0x3d792c98	0.060833544
105	0xbe10f563	-0.14156108
106	0xbe5e7326	-0.21723613
107	0x3e7475c0	0.23873043
108	0xbb6ed9c7	-0.0036445723
109	0x3c84e938	0.016224489
110	0xbd081b9c	-0.033229455
111	0x3c92b7f8	0.017909989
112	0xbb8ac90f	-0.004235394
113	0xbc55992d	-0.013037008
114	0x3b0f1fbc	0.0021838984
115	0x3c69e76b	0.014276366
116	0x3c702fb4	0.014659811
117	0x3c93d231	0.018044563
118	0x3c78d99f	0.015188604
119	0x3c44834e	0.011994196
120	0x3bc32b4e	0.00595609
121	0x3bcc74be	0.0062395027
122	0x3bb9da28	0.005671758
123	0xbca79f8b	-0.020461818
124	0xbcb47980	-0.022030592
125	0xbc3902e2	-0.011292191
126	0xbc1b4cac	-0.009478729
127	0xbc20eb17	-0.009821675
128	0xbb361161	-0.0027781355
129	0x3c0abe9d	0.008468297
130	0x3af4ed30	0.001868641
131	0xbb74d5c8	-0.003735887
132	0x3b21294b	0.0024591263
133	0x3ba71a53	0.0050995736
134	0xbbd7a457	-0.00658087
135	0x3aadf3d0	0.0013271514
136	0xbbf0cbb3	-0.0073485016
137	0xbc48975f	-0.012243121
138	0xbc8325a9	-0.016009169
139	0xbc76fc1b	-0.015074755
140	0xbbb59e15	-0.0055425265
141	0xbb4c49c1	-0.003117189
142	0x3bde71c8	0.006788466
143	0xbcc9a93f	-0.024616836
144	0xbbae6b88	-0.0053228773
145	0x3c4970a2	0.01229492
146	0xbd1090be	-0.035294287
147	0x3c8691d0	0.01642695
148	0xbbf63b52	-0.0075143958
149	0xbc95eca5	-0.018301317
150	0x3b439541	0.00298436
151	0x3c936102	0.017990593
152	0x3c42b7e6	0.011884665
153	0x3c9703db	0.018434456
154	0x3c4b9e88	0.0124279335
155	0x3bf67dd3	0.0075223236
156	0xba92d916	-0.0011203613
157	0xbab1ac44	-0.0013555367
158	0x3b961ded	0.004581204
159	0xbcb19afa	-0.021680344
160	0xbccd6f92	-0.025077615
161	0xbcaeaa9f	-0.021321593
162	0xbbf71b8c	-0.0075411256
163	0xbc5d76fc	-0.013517138
164	0xbb774fad	-0.00377367
165	0x3b2814dc	0.0025647199
166	0xbb890265	-0.0041811937
167	0xbbf3cbe1	-0.0074400757
168	0xb9ce719e	-0.00039376033
169	0x3b6d98e8	0.003625447
170	0xbc2c0ba9	-0.010500827
171	0xbaf5fbfb	-0.0018767113
172	0xbc2a8027	-0.01040653
173	0xbc85b72c	-0.016322695
174	0xbc9896f2	-0.018626664
175	0xbc8a2ec6	-0.016868006
176	0xbbedea16	-0.0072605712
177	0xbbb9fd39	-0.0056759384
178	0x3b576128	0.0032864306
179	0xbcde0b6c	-0.027105056
180	0x3dc51381	0.09622861
181	0x3d92e4cf	0.07172548
182	0x3d76110e	0.06007486
183	0xbb3e8491	-0.0029070715
184	0x3db1ac40	0.08675432
185	0x3d31aa65	0.04337539
186	0x3dc98584	0.09839919
187	0xbe7c1744	-0.2461825
188	0xbbffd99b	-0.007807923
189	0x3b344061	0.0027504193
190	0x3be5b46d	0.007010034
191	0xbd156ebf	-0.03648257
192	0xbd8a524a	-0.06753977
193	0xbd841815	-0.06449906
194	0x3d59b0b9	0.05314705
195	0x3ddb376d	0.10703931
196	0x3d304021	0.043029908
197	0xbe12f5c6	-0.14351568
198	0xbca78b3f	-0.02045214
199	0xbe5690cf	-0.20953678
200	0x3d0bd8c5	0.034142274
201	0xbc88729a	-0.016656209
202	0xbc5dc56f	-0.013535841
203	0xbd29c84f	-0.041450795
204	0xbdae929d	-0.08524058
205	0xbe8a6704	-0.2703172
206	0x3d2a820c	0.04162793
207	0x3c96b28f	0.01839569
208	0x3d91cda3	0.071193
209	0x3d1e66b3	0.03867216
210	0x3d155a96	0.036463343
211	0x3d8c1f12	0.06841864
212	0x3e11b414	0.1422885
213	0xbcb257cd	-0.021770382
214	0x3dbbd535	0.091715254
215	0xbd8e77e7	-0.06956463
216	0xbc2a5eb4	-0.010398556
217	0xbc53c42a	-0.012925187
218	0xbc039f35	-0.008033563
219	0x3bf0bf91	0.0073470552
220	0xbb19daae	-0.002347629
221	0xbb3a3d0a	-0.002841773
222	0xbb446999	-0.0029970168
223	0xb9f84e94	-0.0004736079
224	0xbc106bf8	-0.008814804
225	0x3a915fda	0.0011091188
226	0xbc02c073	-0.007980454
227	0xbc7b47b6	-0.015336921
228	0xbca4e10e	-0.020126846
229	0xbc92de73	-0.017928338
230	0xbbef1e38	-0.0072973035
231	0xbbc14cf8	-0.005899068
232	0x3b945d98	0.004527759
233	0xbcef91a3	-0.02924425
234	0x3d0f7b44	0.035029665
235	0x3adbac20	0.0016759671
236	0xbd1c1b4d	-0.038111974
237	0xbdb27406	-0.08713536
238	0xbd6d3928	-0.057915837
239	0xbe09a2b3	-0.13440971
240	0xbcce10a0	-0.025154412
241	0xbe706e9c	-0.23479694
242	0xbda602a7	-0.08105975
243	0xbdbc7d95	-0.0920364
244	0xbd43916f	-0.04774612
245	0xbd507e58	-0.05090174
246	0xbd3efb8e	-0.04662662
247	0xbcca6922	-0.024708334
248	0xbd274133	-0.040833663
249	0xbb60bb96	-0.0034291497
250	0xbd7fc14f	-0.062440213
251	0x3c669b14	0.014075059
252	0xbc2c34e9	-0.010510662
253	0xbcacddcd	-0.021101857
254	0xbae6e2bc	-0.001761518
255	0x3aaa909f	0.0013013071

lstm.weight_hh_l0 f4 [128, 32]
0	0x3db0c143	0.08630612
1	0x3e20ea2e	0.15714332
2	0xbe110a04	-0.14163977
3	0x3d286fe9	0.04112235
4	0x3dfc8424	0.12329891
5	0x3d23fe99	0.040037725
6	0x3e142b0d	0.14469548
7	0xbdff5459	-0.1246726
8	0x3e162106	0.14661035
9	0xbe02aa47	-0.12760268
10	0x3e1eec59	0.15519847
11	0xbd463147	-0.04838684
12	0x3e038759	0.128446
13	0x3d738e83	0.05946208
14	0xbdfae8d2	-0.12251438
15	0x3dfec7a0	0.12440419
16	0xbe051bf1	-0.1299894
17	0x3e13e849	0.14444079
18	0xbdccde84	-0.10003379
19	0x3dca0fe0	0.09866309
20	0x3dfe1361	0.1240604
21	0xbdaeb195	-0.08529965
22	0x3e002902	0.12515643
23	0xbd758598	-0.059941858
24	0x3df96076	0.121766016
25	0x3dff3575	0.12461368
26	0xbdf7d0fd	-0.12100408
27	0x3e2533ab	0.16132991
28	0x3da54e52	0.08071579
29	0x3c37b123	0.011211666
30	0x3e01306c	0.12616128
31	0x3dfe535b	0.124182425
32	0x3e2345f9	0.15944661
33	0xbcc48530	-0.02398929
34	0x3beb270a	0.0071762847
35	0x3e06ca1a	0.13163033
36	0xbde32eda	-0.110929206
37	0xbe1120c2	-0.14172652
38	0xbc2d1a95	-0.01056542
39	0x3de3e003	0.11126711
40	0xbc8b9e09	-0.01704313
41	0x3dd95b96	0.10613172
42	0xbe033437	-0.12812887
43	0xbe0d9a38	-0.13828361
44	0xbdd0b76d	-0.10191236
45	0x3dbf4987	0.09340196
46	0x3dea5d1b	0.1144354
47	0xbdde1aa9	-0.10844929
48	0xbdd6da40	-0.10490847
49	0x3c3c46f6	0.011491528
50	0xbd376ff5	-0.044784505
51	0xbdc2a90c	-0.095048994
52	0xbde5687c	-0.112015694
53	0x3cdda748	0.027057305
54	0xbdd1c83f	-0.10243272
55	0x3e211d39	0.15733804
56	0xbdef9b92	-0.116995946
57	0xbdddfb52	-0.10838951
58	0x3dfa9051	0.122345574
59	0xbd0e10e7	-0.034684088
60	0xbe05813f	-0.13037585
61	0x3e1fb1a9	0.15595116
62	0xbddbc6db	-0.10731288
63	0xbddbc363	-0.107306264
64	0xbd889482	-0.066689506
65	0xbd0a4799	-0.033759687
66	0x3d7ee254	0.062227562
67	0x3d225954	0.03963597
68	0xbd0c51fb	-0.03425787
69	0xbcd71bd4	-0.026258387
70	0xbd813eb3	-0.06310787
71	0x3d092a61	0.03348768
72	0xbd870f8b	-0.065947615
73	0x3d10478f	0.035224494
74	0xbda6f78b	-0.08152684
75	0x3d41afbe	0.04728674
76	0xbd05de9d	-0.032683004
77	0x3c0af52d	0.008481306
78	0x3d18b35d	0.03728043
79	0xbd1312d9	-0.035906646
80	0x3d0d09ce	0.03443318
81	0xbb1083f7	-0.0022051313
82	0x3cd2b419	0.025720643
83	0xbd2ca677	-0.04215094
84	0xbd2397f5	-0.03993984
85	0xbc860054	-0.016357578
86	0xbd11f6fc	-0.035635933
87	0x3c694a22	0.014238866
88	0xbd17a504	-0.037022606
89	0xbd06fa1e	-0.032953374
90	0x3d2ec625	0.042669434
91	0xbd9fd1fb	-0.078037225
92	0xbd94aa0d	-0.07258997
93	0x3c0c8c37	0.008578352
94	0xbd0c59c1	-0.034265283
95	0xbd0f064d	-0.03491812
96	0xbce71658	-0.028208897
97	0x3e0f2a6b	0.13981025
98	0x3d62b143	0.05534483
99	0xbe9b17b5	-0.30291525
100	0x3d40b0fe	0.047043793
101	0x3d4136dd	0.047171462
102	0xbd2ad86d	-0.041710306
103	0xbcfd26c9	-0.030902283
104	0xbd579139	-0.05262873
105	0xbcf68da4	-0.030096836
106	0xbdddae09	-0.1082421
107	0x3d3494c3	0.044087183
108	0x3d440897	0.047859754
109	0x3dabc982	0.08388044
110	0xbcbfc70c	-0.023410343
111	0x3d0a56f5	0.033774335
112	0x3e916043	0.28393754
113	0x3d715b8e	0.058925204
114	0x3b848fb6	0.004045452
115	0x3d3ffa7a	0.046869732
116	0x3c876d8c	0.016531728
117	0xbdb568bb	-0.088578664
118	0x3c1c860e	0.0095534455
119	0x3d45778c	0.048209712
120	0x3ccde1b7	0.025132043
121	0x3d38810f	0.045044955
122	0xbbf02c16	-0.007329474
123	0xbdcc0270	-0.099614024
124	0xbe08c716	-0.13357195
125	0xbcf0e281	-0.02940488
126	0x3d165b21	0.036708
127	0x3d1f8a32	0.038950153
128	0xbdd51656	-0.10404651
129	0xbdf6e72a	-0.1205581
130	0x3d10e6c3	0.03537632
131	0x39ba2588	0.00035504648
132	0xbc91a884	-0.01778055
133	0x3ce7492c	0.028233133
134	0xbd21ef3b	-0.03953479
135	0x3c602fc4	0.013683263
136	0xbd19a5f7	-0.037511792
137	0x3c80054d	0.015627528
138	0x3d138c40	0.036022425
139	0x3dc5df0f	0.09661686
140	0xbc86901e	-0.016426142
141	0xbd7d46a6	-0.061834954
142	0x3c74d8f3	0.014944303
143	0xbc808c67	-0.015691949
144	0x3c876910	0.01652959
145	0x3c239204	0.009983543
146	0x3ca445e0	0.02005285
147	0xbcb3e2fa	-0.021958817
148	0xbc637af5	-0.013884296
149	0xbc5065f5	-0.012719621
150	0xbc6112f7	-0.013737432
151	0xbdbd9956	-0.09257762
152	0xbc93b6bb	-0.018031469
153	0xbc8447f0	-0.016147584
154	0x3c2b96bc	0.01047295
155	0xbce7e004	-0.028305061
156	0x3d7b7ee9	0.061400328
157	0xbdeaea4c	-0.1147047
158	0xbc85ebf8	-0.01634787
159	0xbc90201a	-0.017593432
160	0xbddf7e6b	-0.10912784
161	0xbe6991e3	-0.22809558
162	0x3b5e7e80	0.0033949912
163	0x3d60d520	0.05489075
164	0x3b266c5c	0.0025394177
165	0x3cf7e714	0.030261554
166	0xbbf1c4b4	-0.007378185
167	0xbba2f7c5	-0.004973384
168	0xbb483646	-0.0030549928
169	0xbb5dff5a	-0.0033874125
170	0x3cac6838	0.02104579
171	0x3ddedfc3	0.10882523
172	0xb9b44d83	-0.00034390026
173	0xbd9f8cec	-0.077905506
174	0xbb1c484d	-0.0023846806
175	0x3b4290d5	0.0029688377
176	0xbcb6a74b	-0.022296568
177	0xbd9b940e	-0.075965986
178	0x3ced133f	0.028939841
179	0x3cad6f5d	0.021171266
180	0x3a8b19f7	0.0010612597
181	0xbcbaabc5	-0.022786984
182	0x3b368afa	0.0027853833
183	0xbdffefd4	-0.124969155
184	0x3b10f1a6	0.002211669
185	0x3b34c757	0.0027584636
186	0xbc2dc914	-0.010607023
187	0xbbc20dc2	-0.00592205
188	0x3e1e2a9f	0.15445946
189	0xbe0bc8b6	-0.13650784
190	0x3b56e221	0.0032788592
191	0x3b690985	0.0035558653
192	0xbd766686	-0.060156368
193	0xbd05cc1e	-0.032665364
194	0x3d6e4d50	0.0581792
195	0x3d19c321	0.037539605
196	0xbd12bd8b	-0.035825294
197	0xbcfa3f61	-0.0305478
198	0xbd6bba1c	-0.057550535
199	0x3d102d5c	0.035199508
200	0xbd7b2294	-0.061312273
201	0x3d16409f	0.03668272
202	0xbda46dd7	-0.08028763
203	0x3d28cf6b	0.041213434
204	0xbd0b443b	-0.034000617
205	0x3c28ee58	0.010310732
206	0x3d223aa2	0.039606698
207	0xbd1a69a6	-0.03769841
208	0x3d168e08	0.036756545
209	0x3b6fa056	0.0036564074
210	0x3c7e6950	0.015528038
211	0xbd3c8b88	-0.046031505
212	0xbd2c3044	-0.042038217
213	0xbc9ad089	-0.018898265
214	0xbd17645e	-0.036960952
215	0x3c8757d2	0.016521368
216	0xbd1f630e	-0.038912825
217	0xbd0e3b50	-0.034724534
218	0x3d381a9d	0.044947255
219	0xbd9467f8	-0.07246393
220	0xbd949325	-0.07254628
221	0x3c8e13c4	0.01734341
222	0xbd12be40	-0.035825968
223	0xbd174154	-0.036927536
224	0xbde6c880	-0.11268711
225	0xbde249ae	-0.110492095
226	0x3d17b2e9	0.037035856
227	0x3bfcbc83	0.007712902
228	0xbc6bf6f9	-0.014402145
229	0x3d124973	0.035714578
230	0xbd295f7e	-0.041350834
231	0x3c28c121	0.010299952
232	0xbd23423f	-0.0398581
233	0x3c59fd33	0.013304996
234	0x3d16602b	0.036712807
235	0x3dce5c1e	0.10076164
236	0xbc616664	-0.013757322
237	0xbd5aca1a	-0.053415395
238	0x3c3edadb	0.011648859
239	0xbc46dabd	-0.012137112
240	0x3c01a6bb	0.007913287
241	0x3c243587	0.010022528
242	0x3cd28425	0.025697777
243	0xbc7a90d5	-0.01529332
244	0xbc2f420a	-0.010696897
245	0xbc2b81bb	-0.010467942
246	0xbc2fda43	-0.01073319
247	0xbdbd399e	-0.09239505
248	0xbc6213eb	-0.013798694
249	0xbc59e94b	-0.01330025
250	0x3be8dcfe	0.0071064224
251	0xbcf84907	-0.03030826
252	0x3d6ebce8	0.058285624
253	0xbdec0d25	-0.115259446
254	0xbc510a2d	-0.012758774
255	0xbc615d53	-0.01375516

lstm.bias_ih_l0 f4 [128]
0	0x3ec86bab	0.39144644
1	0xbdbadb66	-0.09123878
2	0x3b19147f	0.0023358164
3	0x3eb12ac1	0.3460293
4	0x3dba16d7	0.090863876
5	0x3d8cfa61	0.068836935
6	0x3c428457	0.011872373
7	0x3db9471f	0.090467684
8	0x3c06a9f5	0.008219232
9	0x3daf464b	0.08558329
10	0xbdfc8fdc	-0.123321265
11	0xbc916033	-0.017746067
12	0x3da2e703	0.07954218
13	0x3cbbd249	0.02292742
14	0x3dd5b5c9	0.104350634
15	0x3dbb4d7c	0.09145638
16	0xbc4701e1	-0.012146444
17	0x3d028f59	0.03187499
18	0x3dcc6f7b	0.09982201
19	0x3da6383b	0.08116194
20	0x3dc6ae28	0.097011864
21	0x3c4b52e8	0.012409903
22	0x3d9adf0e	0.075620756
23	0x3da036fd	0.07822988
24	0x3dc5f841	0.09666491
25	0x3db9eaa3	0.090779565
26	0x3dcf2d44	0.101160556
27	0xbdad11ab	-0.084506355
28	0xbe8e8b86	-0.27840823
29	0xbe1075c4	-0.14107424
30	0x3dad7923	0.084703706
31	0x3dbe5526	0.092935845
32	0x3e78bee5	0.2429157
33	0x3ee98119	0.45606306
34	0xbc0a9550	-0.00845845
35	0x3ed1cb01	0.40975192
36	0x3e11fd7d	0.14256854
37	0x3d019c0b	0.031642955
38	0xbbdc69e7	-0.0067264917
39	0x3e12755c	0.14302582
40	0xb7c0abaa	-2.296812e-05
41	0x3e109052	0.14117554
42	0x3d3a28d7	0.045449104
43	0x3f0beddc	0.5465982
44	0x3e1a1dc1	0.15050413
45	0x3eeeb053	0.466189
46	0x3e147027	0.14495908
47	0x3e11808a	0.1420919
48	0x3edf602b	0.43628058
49	0x3f077fce	0.5292939
50	0x3da3fec7	0.08007579
51	0x3d542139	0.051789496
52	0x3e0ed2d4	0.13947612
53	0x3e5910af	0.2119777
54	0x3e0f807f	0.14013861
55	0x3e53b56e	0.20674679
56	0x3e0eb85f	0.1393752
57	0x3e1ca00c	0.15295428
58	0x3e155366	0.14582595
59	0xbd0f71a9	-0.035020504
60	0x3f20ddc6	0.628384
61	0x3eadc0d7	0.33936188
62	0x3e113e07	0.14183818
63	0x3e184fed	0.1487424
64	0x3c35e6f6	0.011102429
65	0x3e19068f	0.14943908
66	0xbc4d5616	-0.0125327315
67	0x3c69ebc1	0.0142773995
68	0xbc0829f1	-0.008310781
69	0x3d228da9	0.03968588
70	0x3c563c15	0.013075848
71	0xbc41912d	-0.011814398
72	0x3cee59d8	0.029095575
73	0xbc808cb1	-0.015692087
74	0x3dba82bd	0.091069676
75	0x3d91434d	0.07092915
76	0x3b9528ca	0.0045519816
77	0x3da550eb	0.080720745
78	0xbc71fac5	-0.014769261
79	0x3b93030e	0.004486448
80	0xbd8271b7	-0.06369346
81	0x3e24bfbb	0.16088764
82	0xbe726e41	-0.23674871
83	0xbdf2a7a6	-0.11848383
84	0x3d424966	0.04743328
85	0xbed068db	-0.40704998
86	0x3d0798f1	0.03310484
87	0xbc8458fc	-0.016155712
88	0xbbdb6284	-0.0066950936
89	0xbc4714f2	-0.01215099
90	0xbcc7c6f7	-0.024386866
91	0x3d0fda93	0.035120558
92	0xbc8b7196	-0.017021935
93	0x3ca69829	0.020336227
94	0x3b0b28af	0.0021233966
95	0x3bfbf668	0.007689286
96	0x3f18a955	0.5963338
97	0x3dadb1af	0.08481156
98	0x3dd1e088	0.10247904
99	0x3edfb6fa	0.43694288
100	0x3e8af124	0.271371
101	0x3e62c186	0.22144136
102	0x3ddfbbf4	0.10924521
103	0x3e8a061c	0.26957786
104	0x3dda2193	0.10650935
105	0x3e876532	0.26444393
106	0x3e4d5082	0.20050243
107	0x3e0ea3d2	0.1392968
108	0x3e853890	0.26019716
109	0x3dee273e	0.116285786
110	0x3e901e24	0.28147995
111	0x3e8a7a95	0.27046648
112	0x3e709b47	0.23496734
113	0x3e3e127e	0.18561742
114	0x3e46b887	0.19406329
115	0x3e5fe727	0.21865521
116	0x3e8d4041	0.27588084
117	0x3e912e2d	0.28355542
118	0x3e8356e9	0.25652245
119	0x3e8bde43	0.2731801
120	0x3e8cdc73	0.2751194
121	0x3e8b0668	0.27153325
122	0x3e92374b	0.2855781
123	0x3d69b8bb	0.05706094
124	0x3ecd7bb7	0.4013345
125	0x3e8d99b0	0.27656317
126	0x3e878ec7	0.26476118
127	0x3e8c453e	0.27396578

lstm.bias_hh_l0 f4 [128]
0	0x3ec86b05	0.3914415
1	0xbdbc12b7	-0.09183257
2	0x3b19147f	0.0023358164
3	0x3eaf3684	0.3422128
4	0x3dba16d7	0.090863876
5	0x3d4bc25a	0.049745895
6	0x3c428457	0.011872373
7	0x3db9471f	0.090467684
8	0x3c06a9f5	0.008219232
9	0x3daf464b	0.08558329
10	0xbdfd60e6	-0.123719975
11	0x3c8c4bb4	0.017125942
12	0x3da2e703	0.07954218
13	0x3b19f2cf	0.0023490672
14	0x3dd5b5c9	0.104350634
15	0x3dbb4d7c	0.09145638
16	0xbc060e51	-0.008182124
17	0xbd454c69	-0.048168574
18	0x3dc4e2e3	0.09613588
19	0x3da63a39	0.08116574
20	0x3dc6ae28	0.097011864
21	0xbd61f8c7	-0.055168893
22	0x3d9adf0e	0.075620756
23	0x3da036fd	0.07822988
24	0x3dc5f841	0.09666491
25	0x3db9eaa3	0.090779565
26	0x3dcf2d44	0.101160556
27	0xbdad11b7	-0.084506445
28	0xbe4830fc	-0.19549936
29	0xbe044276	-0.12915978
30	0x3dad7923	0.084703706
31	0x3dbe5526	0.092935845
32	0x3e787f5d	0.24267335
33	0x3eea5166	0.45765227
34	0xbc0a9550	-0.00845845
35	0x3ed1d380	0.40981674
36	0x3e11fd7d	0.14256854
37	0x3cf7a2e2	0.030229036
38	0xbbdc69e7	-0.0067264917
39	0x3e12755c	0.14302582
40	0xb7c0abaa	-2.296812e-05
41	0x3e109052	0.14117554
42	0x3d193946	0.037408136
43	0x3eef9055	0.46789804
44	0x3e1a1dc1	0.15050413
45	0x3ee5f8dc	0.44916427
46	0x3e147027	0.14495908
47	0x3e11808a	0.1420919
48	0x3ee50796	0.4473235
49	0x3f059b0b	0.521897
50	0x3dbe6422	0.092964426
51	0x3d5425f2	0.051794
52	0x3e0ed2d4	0.13947612
53	0x3e82d404	0.2555238
54	0x3e0f807f	0.14013861
55	0x3e53b56e	0.20674679
56	0x3e0eb85f	0.1393752
57	0x3e1ca00c	0.15295428
58	0x3e155366	0.14582595
59	0xbd0f719f	-0.035020467
60	0x3f2204df	0.6328868
61	0x3eb4aa8c	0.35286367
62	0x3e113e07	0.14183818
63	0x3e184fed	0.1487424
64	0xbd3e2ef0	-0.04643148
65	0x3e8fd37a	0.2809103
66	0xbcb24a68	-0.021763995
67	0xbd66ac79	-0.056316826
68	0x3c016ee2	0.007899972
69	0x3d9429ef	0.07234561
70	0x3cca227c	0.024674647
71	0xbc7ff772	-0.01562296
72	0x3d0a00e7	0.033692267
73	0xbbf7425f	-0.007545754
74	0x3bfa5b56	0.0076402826
75	0xbc235256	-0.009968361
76	0xbbf2013f	-0.0073854025
77	0x3da5822e	0.080814704
78	0xbcf5f9ea	-0.030026395
79	0x3bfd6fac	0.0077342596
80	0x3cd70570	0.02624771
81	0x3ec32832	0.38116604
82	0xbea45270	-0.32094145
83	0xbc89240a	-0.016740818
84	0x3c1241e4	0.008926842
85	0xbeae2552	-0.34012848
86	0x3c144b7d	0.009051201
87	0xbca6b23b	-0.020348659
88	0x3d213d11	0.039364878
89	0xbb8da465	-0.004322576
90	0xbd1d309b	-0.038376432
91	0x3d813bfa	0.06310268
92	0x3e2f3a03	0.17111973
93	0xbdfc1a50	-0.12309706
94	0x3b74c002	0.003734589
95	0xb9fff026	-0.00048816315
96	0x3f18a0f7	0.5962061
97	0x3db3e8d4	0.08784643
98	0x3dd1e088	0.10247904
99	0x3ed9ac4f	0.42514274
100	0x3e8af124	0.271371
101	0x3e849468	0.25894475
102	0x3ddfbbf4	0.10924521
103	0x3e8a061c	0.26957786
104	0x3dda2193	0.10650935
105	0x3e876532	0.26444393
106	0x3e4bd481	0.19905283
107	0x3e595445	0.21223553
108	0x3e853890	0.26019716
109	0x3df00328	0.11719352
110	0x3e901e24	0.28147995
111	0x3e8a7a95	0.27046648
112	0x3e88cec1	0.2672024
113	0x3e2e463b	0.17018978
114	0x3e24c02a	0.1608893
115	0x3e5fe705	0.2186547
116	0x3e8d4041	0.27588084
117	0x3e6b2320	0.22962618
118	0x3e8356e9	0.25652245
119	0x3e8bde43	0.2731801
120	0x3e8cdc73	0.2751194
121	0x3e8b0668	0.27153325
122	0x3e92374b	0.2855781
123	0x3d69b8bb	0.05706094
124	0x3eb40e57	0.3516719
125	0x3e8d932a	0.2765134
126	0x3e878ec7	0.26476118
127	0x3e8c453e	0.27396578

fc.0.weight f4 [16, 32]
0	0x3e17e409	0.14833082
1	0xbe49143d	-0.19636627
2	0x3cb57d3f	0.022154449
3	0xbc7b8ecf	-0.015353872
4	0xbede5dff	-0.43431088
5	0xbe4dd68a	-0.20101371
6	0xb984298f	-0.00025207966
7	0x3ee16d45	0.4402868
8	0xbb9bb350	-0.0047516003
9	0x3edef987	0.4354975
10	0xbeb7a138	-0.35865188
11	0xbe05eb10	-0.1307795
12	0xbedd0ea5	-0.43175235
13	0xbe0a5934	-0.13510591
14	0x3ee0fbf8	0.43942237
15	0xbede36f4	-0.434013
16	0xbc469b7c	-0.012122031
17	0xbb9c40c6	-0.004768464
18	0x3a7a597e	0.00095500785
19	0xbe9c19d6	-0.3048846
20	0xbee0ffc4	-0.43945134
21	0x3a4eca73	0.00078884437
22	0xbee1ebe0	-0.4412527
23	0x3e949057	0.29016373
24	0xbedbd208	-0.4293368
25	0xbed70501	-0.41996005
26	0x3ee06fc0	0.43835258
27	0x3d37c296	0.044863306
28	0xbe669851	-0.22519042
29	0x3e64aba0	0.22331095
30	0xbedb6b2e	-0.4285521
31	0xbeddf62f	-0.43351886
32	0x3dea8ed8	0.114530265
33	0x3c096bc0	0.008387506
34	0xbe6d4957	-0.23172508
35	0x3d2b195e	0.04177224
36	0x3d3a489e	0.04547941
37	0xbbc5f21d	-0.006040825
38	0x3e54a5a3	0.2076631
39	0xbd500052	-0.050781555
40	0x3e5c7015	0.21527131
41	0xbd5cf434	-0.053943828
42	0x3e8c93b3	0.27456436
43	0xbe75611a	-0.23962823
44	0x3d59a056	0.053131424
45	0x3c254b77	0.010088793
46	0xbd515e7c	-0.051115498
47	0x3d5aaa09	0.053384814
48	0xbe15e715	-0.14638932
49	0xbca9be64	-0.020720668
50	0xbe3a9810	-0.1822207
51	0x3cf324e5	0.029680679
52	0x3d41230e	0.04715257
53	0x3d5ccdd9	0.05390725
54	0x3d6e9335	0.058245856
55	0xbe25197b	-0.16123001
56	0x3d5c0084	0.05371143
57	0x3d4479d3	0.047967743
58	0xbd3ee134	-0.04660149
59	0x3e940290	0.28908205
60	0x3e42e3d6	0.19032225
61	0x3e2fe7f1	0.17178322
62	0x3d458a9a	0.048227884
63	0x3d339e27	0.043851998
64	0xbdb99f9c	-0.09063646
65	0x3df3c451	0.11902679
66	0xbeacd145	-0.3375341
67	0x3d9cdb4c	0.07659015
68	0x3e3754c0	0.17903423
69	0x3dad6ea4	0.08468369
70	0x3eb0f422	0.3456126
71	0xbe3d72b9	-0.18500794
72	0x3ead8195	0.33887926
73	0xbe429eb2	-0.1900585
74	0x3c953e1a	0.018218089
75	0x3e1b7c19	0.15184058
76	0x3e3ddce7	0.18541299
77	0x3d5d0bb6	0.053966247
78	0xbe4090b4	-0.188052
79	0x3e3d0325	0.18458231
80	0x3c85a9d8	0.01631634
81	0xbda54f70	-0.08071792
82	0x3d76e3c3	0.060275804
83	0x3e05d18e	0.1306822
84	0x3e3e743a	0.18599024
85	0x3dc4eca1	0.09615446
86	0x3e41d7ff	0.18930052
87	0x3e0ebda0	0.13939524
88	0x3e3b957b	0.18318741
89	0x3e419343	0.18903832
90	0xbe392bf4	-0.18083173
91	0x3e8abd61	0.2709761
92	0xbda60da7	-0.08108073
93	0xbe1a033e	-0.150403
94	0x3e3f257e	0.18666646
95	0x3e3dc781	0.18533136
96	0xbe101314	-0.14069778
97	0x3d03b39a	0.032153703
98	0xbe9d6d01	-0.30747226
99	0x3d333e32	0.043760486
100	0x3dcf5732	0.10124053
101	0x3cd98706	0.026553642
102	0x3e9b90b0	0.30383825
103	0xbdc72045	-0.09722952
104	0x3e9eb49a	0.30997163
105	0xbddb9ac0	-0.107228756
106	0x3e5ebdee	0.2175214
107	0x3ba02bac	0.0048880186
108	0x3dd5f601	0.10447312
109	0x3c9a6d82	0.018851046
110	0xbdccaa59	-0.09993429
111	0x3dd174f3	0.102273844
112	0xbe22684e	-0.15860102
113	0xbe08bbc9	-0.13352884
114	0xbe30846b	-0.17238013
115	0x3d9f7acd	0.07787094
116	0x3dccec0e	0.10005961
117	0x3e0f1df9	0.13976277
118	0x3de5e9ba	0.112262204
119	0x3d13eba2	0.03611339
120	0x3dc570e8	0.09640676
121	0x3dcccce3	0.100000165
122	0xbdd1326e	-0.10214697
123	0x3eaafcbf	0.33395955
124	0x3d5a0744	0.053229585
125	0x3c9e68a1	0.019337
126	0x3dcc8dae	0.09987961
127	0x3dc7d883	0.09758093
128	0x3c9402a4	0.018067665
129	0xbe0983c1	-0.13429166
130	0xbd909915	-0.07060448
131	0xbc40c951	-0.011766748
132	0xbda59f4b	-0.08087023
133	0xbcf90cf1	-0.030401679
134	0x3d9c6465	0.07636336
135	0x3da3c07e	0.07995699
136	0x3d8f48f9	0.0699634
137	0x3dae379a	0.08506699
138	0xbdc08c16	-0.09401719
139	0x3c16098e	0.009157551
140	0xbdaf25af	-0.085521095
141	0xbcf6bef8	-0.030120358
142	0x3da92afa	0.0826015
143	0xbda5fe9d	-0.08105204
144	0x3d2cccf9	0.042187665
145	0x3cf3258b	0.029680988
146	0x3cfdad4e	0.030966427
147	0xbd749109	-0.05970863
148	0xbda44234	-0.0802044
149	0xbd20ff12	-0.039305754
150	0xbdaece9e	-0.08535503
151	0x3bac2956	0.005253951
152	0xbda0895a	-0.07838698
153	0xbda70f9f	-0.08157276
154	0x3da2bad7	0.07945793
155	0x3d8709b3	0.06593647
156	0xbce80a5a	-0.028325249
157	0x3ba3ff77	0.005004819
158	0xbdaa3737	-0.08311313
159	0xbda7063b	-0.08155485
160	0x3d27d609	0.040975604
161	0xbe932f66	-0.287471
162	0xbe0e03a5	-0.13868578
163	0xbd118759	-0.03552947
164	0xbe34e2ac	-0.17664593
165	0xbd8ccb26	-0.06874685
166	0x3e1d234f	0.153455
167	0x3e3a386c	0.18185586
168	0x3e134729	0.14382614
169	0x3e3fea58	0.18741739
170	0xbe56bdc5	-0.20970829
171	0x39f58bac	0.00046834105
172	0xbe3effa5	-0.18652208
173	0xbd945f23	-0.072447084
174	0x3e3bbe00	0.18334198
175	0xbe3838af	-0.17990373
176	0x3dbaa728	0.09113914
177	0x3d8cbfb6	0.068725035
178	0x3d9258af	0.07145821
179	0xbe02aae9	-0.1276051
180	0xbe3a3687	-0.18184863
181	0xbda80c70	-0.08205497
182	0xbe4378e9	-0.19089092
183	0xbaf88217	-0.0018959668
184	0xbe342c67	-0.17595063
185	0xbe384cfd	-0.17998119
186	0x3e35c634	0.1775139
187	0x3e08b015	0.1334842
188	0xbd727b29	-0.059199486
189	0x3c66216a	0.0140460525
190	0xbe3b4a76	-0.18290123
191	0xbe382ea4	-0.17986542
192	0xbdb4d039	-0.08828778
193	0x3d942172	0.07232942
194	0xbe9e77fc	-0.30950916
195	0x3d7c56bc	0.061606154
196	0x3e11ff67	0.14257585
197	0x3d98448a	0.07434948
198	0x3ea2c5e8	0.31791615
199	0xbe116256	-0.14197668
200	0x3ea2b52e	0.31778854
201	0xbe1a910b	-0.15094392
202	0x3d9028b3	0.07039013
203	0x3e0f04c3	0.1396666
204	0x3e13082b	0.14358585
205	0x3d0bb1b7	0.03410503
206	0xbe19a791	-0.15005328
207	0x3e13bbb6	0.14427075
208	0xbd345257	-0.044023838
209	0xbdab3002	-0.08358766
210	0x3c429a97	0.011877677
211	0x3dd0e373	0.101996325
212	0x3e16ce70	0.14727187
213	0x3dbf7af4	0.09349623
214	0x3e1d4bad	0.153609
215	0x3dfd3559	0.12363691
216	0x3e0dd7a6	0.13851795
217	0x3e158a61	0.14603569
218	0xbe0d3221	-0.13788654
219	0x3e8b4112	0.27198082
220	0xbd606a7f	-0.054789063
221	0xbdc9a384	-0.09845641
222	0x3e19f9e8	0.15036738
223	0x3e148cca	0.14506832
224	0x3e696cdd	0.22795434
225	0x3b5fd06a	0.0034151324
226	0xbe1b81ee	-0.15186283
227	0xbe12a56c	-0.14320916
228	0x3c2ffbf1	0.01074122
229	0x3bd32a69	0.0064442647
230	0x3dff9b2d	0.12480769
231	0xbc52387f	-0.0128308525
232	0x3e107521	0.14107181
233	0xbc6ba85e	-0.014383404
234	0x3e6e6c4d	0.23283501
235	0xbe8c3a78	-0.27388358
236	0x3c8e429b	0.017365744
237	0xbb6883fd	-0.0035479062
238	0xbc312ca5	-0.010813867
239	0x3c8aa3e1	0.016923847
240	0xbdb60d4b	-0.08889254
241	0x3e5d8410	0.21632409
242	0xbda8bc58	-0.08239049
243	0x3bc7e947	0.006100807
244	0x3c0dbadb	0.008650507
245	0xbe644b3a	-0.22294322
246	0x3c8ed59a	0.017435838
247	0xbebf9a47	-0.37422392
248	0x3c257b53	0.010100204
249	0x3c6f9c7c	0.014624711
250	0xbc695c0b	-0.014243136
251	0x3e5afc7e	0.2138538
252	0x3e87f6e1	0.2655554
253	0x3e38c233	0.18042831
254	0x3c64651b	0.013940121
255	0x3c3cca24	0.011522803

fc.0.bias f4 [16]
0	0x3fb3d68f	1.4049853
1	0x3fa2fc23	1.2733196
2	0x3f8b1316	1.08652
3	0x3fa9ae62	1.3256342
4	0x3fa92c81	1.3216707
5	0x403c7241	2.9444735
6	0x3f883ef5	1.0644213
7	0x3f9ef0da	1.2417252
8	0x3fb1a8ec	1.3879676
9	0x3fd12f3a	1.6342537
10	0xbfbb3470	-1.4625378
11	0x3f7e48d8	0.993299
12	0x3fbca4ec	1.473783
13	0x3f8641de	1.0488851
14	0x3fb0f3e9	1.3824435
15	0x3fbc11e0	1.4692955

fc.2.weight f4 [1, 16]
0	0xc00ab40c	-2.1672392
1	0x3fb429ec	1.4075294
2	0x3fb870d8	1.4409437
3	0x3fc0466e	1.5021493
4	0x3fa84cd5	1.3148447
5	0x40358567	2.8362672
6	0x3fa9cf7e	1.3266447
7	0x3fb64058	1.4238386
8	0xbfe6a92e	-1.802038
9	0x3fd085b4	1.6290803
10	0x404ad9e9	3.1695502
11	0x3faed8b3	1.3659881
12	0x3fbbb648	1.4665003
13	0x3f9fb45e	1.2476919
14	0xc038e1a3	-2.8887718
15	0x3fbb4851	1.4631444
